…
I0403 16:36:38.575913 27845 net.cpp:294] The NetState phase (0) differed from the phase (1) specified by a rule in layer accuracy
I0403 16:36:38.575971 27845 net.cpp:51] Initializing net from parameters: 
name: "Aug_ANN_3_Class"
state {
  phase: TRAIN
  level: 0
  stage: ""
}
layer {
  name: "data"
  type: "ImageData"
  top: "data"
  top: "label"
  include {
    phase: TRAIN
  }
  transform_param {
    scale: 0.00390625
    mean_file: "mean_img_Aug_3class.binaryproto"
  }
  image_data_param {
    source: "./PETA_Aug_train.txt"
    batch_size: 50
  }
}
layer {
  name: "ip1"
  type: "InnerProduct"
  bottom: "data"
  top: "ip1"
  param {
    lr_mult: 1
  }
  param {
    lr_mult: 2
  }
  inner_product_param {
    num_output: 500
    weight_filler {
      type: "xavier"
    }
    bias_filler {
      type: "constant"
      value: 0
    }
  }
}
layer {
  name: "RELU1"
  type: "ReLU"
  bottom: "ip1"
  top: "ip1"
}
layer {
  name: "ip2"
  type: "InnerProduct"
  bottom: "ip1"
  top: "ip2"
  param {
    lr_mult: 1
  }
  param {
    lr_mult: 2
  }
  inner_product_param {
    num_output: 500
    weight_filler {
      type: "xavier"
    }
    bias_filler {
      type: "constant"
      value: 0
    }
  }
}
layer {
  name: "ip3"
  type: "InnerProduct"
  bottom: "ip2"
  top: "ip3"
  param {
    lr_mult: 1
  }
  param {
    lr_mult: 2
  }
  inner_product_param {
    num_output: 3
    weight_filler {
      type: "xavier"
    }
    bias_filler {
      type: "constant"
      value: 0
    }
  }
}
layer {
  name: "loss"
  type: "SoftmaxWithLoss"
  bottom: "ip3"
  bottom: "label"
  top: "loss"
}
I0403 16:36:38.576056 27845 layer_factory.hpp:77] Creating layer data
I0403 16:36:38.576088 27845 net.cpp:84] Creating Layer data
I0403 16:36:38.576093 27845 net.cpp:380] data -> data
I0403 16:36:38.576123 27845 net.cpp:380] data -> label
I0403 16:36:38.576145 27845 data_transformer.cpp:25] Loading mean file from: mean_img_Aug_3class.binaryproto
I0403 16:36:38.576810 27845 image_data_layer.cpp:38] Opening file ./PETA_Aug_train.txt
I0403 16:36:38.589316 27845 image_data_layer.cpp:63] A total of 37962 images.
I0403 16:36:38.589612 27845 image_data_layer.cpp:90] output data size: 50,3,64,64
I0403 16:36:38.593988 27845 net.cpp:122] Setting up data
I0403 16:36:38.594008 27845 net.cpp:129] Top shape: 50 3 64 64 (614400)
I0403 16:36:38.594012 27845 net.cpp:129] Top shape: 50 (50)
I0403 16:36:38.594013 27845 net.cpp:137] Memory required for data: 2457800
I0403 16:36:38.594018 27845 layer_factory.hpp:77] Creating layer ip1
I0403 16:36:38.594044 27845 net.cpp:84] Creating Layer ip1
I0403 16:36:38.594048 27845 net.cpp:406] ip1 <- data
I0403 16:36:38.594058 27845 net.cpp:380] ip1 -> ip1
I0403 16:36:38.630357 27845 net.cpp:122] Setting up ip1
I0403 16:36:38.630372 27845 net.cpp:129] Top shape: 50 500 (25000)
I0403 16:36:38.630373 27845 net.cpp:137] Memory required for data: 2557800
I0403 16:36:38.630386 27845 layer_factory.hpp:77] Creating layer RELU1
I0403 16:36:38.630394 27845 net.cpp:84] Creating Layer RELU1
I0403 16:36:38.630396 27845 net.cpp:406] RELU1 <- ip1
I0403 16:36:38.630400 27845 net.cpp:367] RELU1 -> ip1 (in-place)
I0403 16:36:38.787395 27845 net.cpp:122] Setting up RELU1
I0403 16:36:38.787415 27845 net.cpp:129] Top shape: 50 500 (25000)
I0403 16:36:38.787418 27845 net.cpp:137] Memory required for data: 2657800
I0403 16:36:38.787421 27845 layer_factory.hpp:77] Creating layer ip2
I0403 16:36:38.787449 27845 net.cpp:84] Creating Layer ip2
I0403 16:36:38.787452 27845 net.cpp:406] ip2 <- ip1
I0403 16:36:38.787458 27845 net.cpp:380] ip2 -> ip2
I0403 16:36:38.788820 27845 net.cpp:122] Setting up ip2
I0403 16:36:38.788828 27845 net.cpp:129] Top shape: 50 500 (25000)
I0403 16:36:38.788830 27845 net.cpp:137] Memory required for data: 2757800
I0403 16:36:38.788836 27845 layer_factory.hpp:77] Creating layer ip3
I0403 16:36:38.788841 27845 net.cpp:84] Creating Layer ip3
I0403 16:36:38.788844 27845 net.cpp:406] ip3 <- ip2
I0403 16:36:38.788847 27845 net.cpp:380] ip3 -> ip3
I0403 16:36:38.789214 27845 net.cpp:122] Setting up ip3
I0403 16:36:38.789222 27845 net.cpp:129] Top shape: 50 3 (150)
I0403 16:36:38.789224 27845 net.cpp:137] Memory required for data: 2758400
I0403 16:36:38.789229 27845 layer_factory.hpp:77] Creating layer loss
I0403 16:36:38.789232 27845 net.cpp:84] Creating Layer loss
I0403 16:36:38.789234 27845 net.cpp:406] loss <- ip3
I0403 16:36:38.789237 27845 net.cpp:406] loss <- label
I0403 16:36:38.789242 27845 net.cpp:380] loss -> loss
I0403 16:36:38.789253 27845 layer_factory.hpp:77] Creating layer loss
…
I0403 16:36:38.789674 27845 solver.cpp:173] Creating test net (#0) specified by net file: ./ANN_Aug_3class_500.prototxt
I0403 16:36:38.789685 27845 net.cpp:294] The NetState phase (1) differed from the phase (0) specified by a rule in layer data
I0403 16:36:38.789746 27845 net.cpp:51] Initializing net from parameters: 
name: "Aug_ANN_3_Class"
state {
  phase: TEST
}
layer {
  name: "data"
  type: "ImageData"
  top: "data"
  top: "label"
  include {
    phase: TEST
  }
  transform_param {
    scale: 0.00390625
    mean_file: "mean_img_Aug_3class.binaryproto"
  }
  image_data_param {
    source: "./PETA_Aug_val.txt"
    batch_size: 50
  }
}
layer {
  name: "ip1"
  type: "InnerProduct"
  bottom: "data"
  top: "ip1"
  param {
    lr_mult: 1
  }
  param {
    lr_mult: 2
  }
  inner_product_param {
    num_output: 500
    weight_filler {
      type: "xavier"
    }
    bias_filler {
      type: "constant"
      value: 0
    }
  }
}
layer {
  name: "RELU1"
  type: "ReLU"
  bottom: "ip1"
  top: "ip1"
}
layer {
  name: "ip2"
  type: "InnerProduct"
  bottom: "ip1"
  top: "ip2"
  param {
    lr_mult: 1
  }
  param {
    lr_mult: 2
  }
  inner_product_param {
    num_output: 500
    weight_filler {
      type: "xavier"
    }
    bias_filler {
      type: "constant"
      value: 0
    }
  }
}
layer {
  name: "ip3"
  type: "InnerProduct"
  bottom: "ip2"
  top: "ip3"
  param {
    lr_mult: 1
  }
  param {
    lr_mult: 2
  }
  inner_product_param {
    num_output: 3
    weight_filler {
      type: "xavier"
    }
    bias_filler {
      type: "constant"
      value: 0
    }
  }
}
layer {
  name: "accuracy"
  type: "Accuracy"
  bottom: "ip3"
  bottom: "label"
  top: "accuracy"
  include {
    phase: TEST
  }
}
layer {
  name: "loss"
  type: "SoftmaxWithLoss"
  bottom: "ip3"
  bottom: "label"
  top: "loss"
}
I0403 16:36:38.789821 27845 layer_factory.hpp:77] Creating layer data
I0403 16:36:38.789829 27845 net.cpp:84] Creating Layer data
I0403 16:36:38.789832 27845 net.cpp:380] data -> data
I0403 16:36:38.789852 27845 net.cpp:380] data -> label
I0403 16:36:38.789857 27845 data_transformer.cpp:25] Loading mean file from: mean_img_Aug_3class.binaryproto
I0403 16:36:38.789994 27845 image_data_layer.cpp:38] Opening file ./PETA_Aug_val.txt
I0403 16:36:38.794086 27845 image_data_layer.cpp:63] A total of 16270 images.
I0403 16:36:38.794307 27845 image_data_layer.cpp:90] output data size: 50,3,64,64
I0403 16:36:38.798307 27845 net.cpp:122] Setting up data
I0403 16:36:38.798327 27845 net.cpp:129] Top shape: 50 3 64 64 (614400)
I0403 16:36:38.798331 27845 net.cpp:129] Top shape: 50 (50)
I0403 16:36:38.798332 27845 net.cpp:137] Memory required for data: 2457800
I0403 16:36:38.798352 27845 layer_factory.hpp:77] Creating layer label_data_1_split
I0403 16:36:38.798360 27845 net.cpp:84] Creating Layer label_data_1_split
I0403 16:36:38.798363 27845 net.cpp:406] label_data_1_split <- label
I0403 16:36:38.798369 27845 net.cpp:380] label_data_1_split -> label_data_1_split_0
I0403 16:36:38.798375 27845 net.cpp:380] label_data_1_split -> label_data_1_split_1
I0403 16:36:38.798599 27845 net.cpp:122] Setting up label_data_1_split
I0403 16:36:38.798609 27845 net.cpp:129] Top shape: 50 (50)
I0403 16:36:38.798612 27845 net.cpp:129] Top shape: 50 (50)
I0403 16:36:38.798614 27845 net.cpp:137] Memory required for data: 2458200
I0403 16:36:38.798616 27845 layer_factory.hpp:77] Creating layer ip1
I0403 16:36:38.798637 27845 net.cpp:84] Creating Layer ip1
I0403 16:36:38.798640 27845 net.cpp:406] ip1 <- data
I0403 16:36:38.798645 27845 net.cpp:380] ip1 -> ip1
I0403 16:36:38.826833 27845 net.cpp:122] Setting up ip1
I0403 16:36:38.826846 27845 net.cpp:129] Top shape: 50 500 (25000)
I0403 16:36:38.826849 27845 net.cpp:137] Memory required for data: 2558200
I0403 16:36:38.826874 27845 layer_factory.hpp:77] Creating layer RELU1
I0403 16:36:38.826880 27845 net.cpp:84] Creating Layer RELU1
I0403 16:36:38.826882 27845 net.cpp:406] RELU1 <- ip1
I0403 16:36:38.826887 27845 net.cpp:367] RELU1 -> ip1 (in-place)
I0403 16:36:38.827303 27845 net.cpp:122] Setting up RELU1
I0403 16:36:38.827311 27845 net.cpp:129] Top shape: 50 500 (25000)
I0403 16:36:38.827312 27845 net.cpp:137] Memory required for data: 2658200
I0403 16:36:38.827316 27845 layer_factory.hpp:77] Creating layer ip2
I0403 16:36:38.827322 27845 net.cpp:84] Creating Layer ip2
I0403 16:36:38.827337 27845 net.cpp:406] ip2 <- ip1
I0403 16:36:38.827342 27845 net.cpp:380] ip2 -> ip2
I0403 16:36:38.828681 27845 net.cpp:122] Setting up ip2
I0403 16:36:38.828688 27845 net.cpp:129] Top shape: 50 500 (25000)
I0403 16:36:38.828691 27845 net.cpp:137] Memory required for data: 2758200
I0403 16:36:38.828696 27845 layer_factory.hpp:77] Creating layer ip3
I0403 16:36:38.828699 27845 net.cpp:84] Creating Layer ip3
I0403 16:36:38.828717 27845 net.cpp:406] ip3 <- ip2
I0403 16:36:38.828722 27845 net.cpp:380] ip3 -> ip3
I0403 16:36:38.828840 27845 net.cpp:122] Setting up ip3
I0403 16:36:38.828845 27845 net.cpp:129] Top shape: 50 3 (150)
I0403 16:36:38.828846 27845 net.cpp:137] Memory required for data: 2758800
I0403 16:36:38.828850 27845 layer_factory.hpp:77] Creating layer ip3_ip3_0_split
I0403 16:36:38.828855 27845 net.cpp:84] Creating Layer ip3_ip3_0_split
I0403 16:36:38.828856 27845 net.cpp:406] ip3_ip3_0_split <- ip3
I0403 16:36:38.828874 27845 net.cpp:380] ip3_ip3_0_split -> ip3_ip3_0_split_0
I0403 16:36:38.828877 27845 net.cpp:380] ip3_ip3_0_split -> ip3_ip3_0_split_1
I0403 16:36:38.828917 27845 net.cpp:122] Setting up ip3_ip3_0_split
I0403 16:36:38.828933 27845 net.cpp:129] Top shape: 50 3 (150)
I0403 16:36:38.828936 27845 net.cpp:129] Top shape: 50 3 (150)
I0403 16:36:38.828938 27845 net.cpp:137] Memory required for data: 2760000
I0403 16:36:38.828939 27845 layer_factory.hpp:77] Creating layer accuracy
I0403 16:36:38.828944 27845 net.cpp:84] Creating Layer accuracy
I0403 16:36:38.828946 27845 net.cpp:406] accuracy <- ip3_ip3_0_split_0
I0403 16:36:38.828949 27845 net.cpp:406] accuracy <- label_data_1_split_0
I0403 16:36:38.828968 27845 net.cpp:380] accuracy -> accuracy
…
