…
I0404 12:49:04.435231 29243 net.cpp:294] The NetState phase (0) differed from the phase (1) specified by a rule in layer accuracy
I0404 12:49:04.435273 29243 net.cpp:51] Initializing net from parameters: 
name: "Aug_ANN_3_Class"
state {
  phase: TRAIN
  level: 0
  stage: ""
}
layer {
  name: "data"
  type: "ImageData"
  top: "data"
  top: "label"
  include {
    phase: TRAIN
  }
  transform_param {
    scale: 0.00390625
    mean_file: "mean_img_Aug_3class.binaryproto"
  }
  image_data_param {
    source: "./PETA_Aug_train.txt"
    batch_size: 50
  }
}
layer {
  name: "ip1"
  type: "InnerProduct"
  bottom: "data"
  top: "ip1"
  param {
    lr_mult: 1
  }
  param {
    lr_mult: 2
  }
  inner_product_param {
    num_output: 1000
    weight_filler {
      type: "xavier"
    }
    bias_filler {
      type: "constant"
      value: 0
    }
  }
}
layer {
  name: "RELU1"
  type: "ReLU"
  bottom: "ip1"
  top: "ip1"
}
layer {
  name: "ip2"
  type: "InnerProduct"
  bottom: "ip1"
  top: "ip2"
  param {
    lr_mult: 1
  }
  param {
    lr_mult: 2
  }
  inner_product_param {
    num_output: 1000
    weight_filler {
      type: "xavier"
    }
    bias_filler {
      type: "constant"
      value: 0
    }
  }
}
layer {
  name: "ip3"
  type: "InnerProduct"
  bottom: "ip2"
  top: "ip3"
  param {
    lr_mult: 1
  }
  param {
    lr_mult: 2
  }
  inner_product_param {
    num_output: 3
    weight_filler {
      type: "xavier"
    }
    bias_filler {
      type: "constant"
      value: 0
    }
  }
}
layer {
  name: "loss"
  type: "SoftmaxWithLoss"
  bottom: "ip3"
  bottom: "label"
  top: "loss"
}
I0404 12:49:04.435350 29243 layer_factory.hpp:77] Creating layer data
I0404 12:49:04.435396 29243 net.cpp:84] Creating Layer data
I0404 12:49:04.435406 29243 net.cpp:380] data -> data
I0404 12:49:04.435447 29243 net.cpp:380] data -> label
I0404 12:49:04.435472 29243 data_transformer.cpp:25] Loading mean file from: mean_img_Aug_3class.binaryproto
I0404 12:49:04.436156 29243 image_data_layer.cpp:38] Opening file ./PETA_Aug_train.txt
I0404 12:49:04.448518 29243 image_data_layer.cpp:63] A total of 37962 images.
I0404 12:49:04.448808 29243 image_data_layer.cpp:90] output data size: 50,3,64,64
I0404 12:49:04.453218 29243 net.cpp:122] Setting up data
I0404 12:49:04.453238 29243 net.cpp:129] Top shape: 50 3 64 64 (614400)
I0404 12:49:04.453243 29243 net.cpp:129] Top shape: 50 (50)
I0404 12:49:04.453243 29243 net.cpp:137] Memory required for data: 2457800
I0404 12:49:04.453265 29243 layer_factory.hpp:77] Creating layer ip1
I0404 12:49:04.453277 29243 net.cpp:84] Creating Layer ip1
I0404 12:49:04.453281 29243 net.cpp:406] ip1 <- data
I0404 12:49:04.453305 29243 net.cpp:380] ip1 -> ip1
I0404 12:49:04.524483 29243 net.cpp:122] Setting up ip1
I0404 12:49:04.524499 29243 net.cpp:129] Top shape: 50 1000 (50000)
I0404 12:49:04.524502 29243 net.cpp:137] Memory required for data: 2657800
I0404 12:49:04.524515 29243 layer_factory.hpp:77] Creating layer RELU1
I0404 12:49:04.524523 29243 net.cpp:84] Creating Layer RELU1
I0404 12:49:04.524525 29243 net.cpp:406] RELU1 <- ip1
I0404 12:49:04.524530 29243 net.cpp:367] RELU1 -> ip1 (in-place)
I0404 12:49:04.684834 29243 net.cpp:122] Setting up RELU1
I0404 12:49:04.684857 29243 net.cpp:129] Top shape: 50 1000 (50000)
I0404 12:49:04.684860 29243 net.cpp:137] Memory required for data: 2857800
I0404 12:49:04.684864 29243 layer_factory.hpp:77] Creating layer ip2
I0404 12:49:04.684891 29243 net.cpp:84] Creating Layer ip2
I0404 12:49:04.684895 29243 net.cpp:406] ip2 <- ip1
I0404 12:49:04.684900 29243 net.cpp:380] ip2 -> ip2
I0404 12:49:04.689453 29243 net.cpp:122] Setting up ip2
I0404 12:49:04.689465 29243 net.cpp:129] Top shape: 50 1000 (50000)
I0404 12:49:04.689467 29243 net.cpp:137] Memory required for data: 3057800
I0404 12:49:04.689474 29243 layer_factory.hpp:77] Creating layer ip3
I0404 12:49:04.689481 29243 net.cpp:84] Creating Layer ip3
I0404 12:49:04.689482 29243 net.cpp:406] ip3 <- ip2
I0404 12:49:04.689486 29243 net.cpp:380] ip3 -> ip3
I0404 12:49:04.689860 29243 net.cpp:122] Setting up ip3
I0404 12:49:04.689869 29243 net.cpp:129] Top shape: 50 3 (150)
I0404 12:49:04.689872 29243 net.cpp:137] Memory required for data: 3058400
I0404 12:49:04.689877 29243 layer_factory.hpp:77] Creating layer loss
I0404 12:49:04.689885 29243 net.cpp:84] Creating Layer loss
I0404 12:49:04.689888 29243 net.cpp:406] loss <- ip3
I0404 12:49:04.689890 29243 net.cpp:406] loss <- label
I0404 12:49:04.689894 29243 net.cpp:380] loss -> loss
I0404 12:49:04.689903 29243 layer_factory.hpp:77] Creating layer loss
…
I0404 12:49:04.690312 29243 solver.cpp:173] Creating test net (#0) specified by net file: ./ANN_Aug_3class_1000.prototxt
I0404 12:49:04.690326 29243 net.cpp:294] The NetState phase (1) differed from the phase (0) specified by a rule in layer data
I0404 12:49:04.690400 29243 net.cpp:51] Initializing net from parameters: 
name: "Aug_ANN_3_Class"
state {
  phase: TEST
}
layer {
  name: "data"
  type: "ImageData"
  top: "data"
  top: "label"
  include {
    phase: TEST
  }
  transform_param {
    scale: 0.00390625
    mean_file: "mean_img_Aug_3class.binaryproto"
  }
  image_data_param {
    source: "./PETA_Aug_val.txt"
    batch_size: 50
  }
}
layer {
  name: "ip1"
  type: "InnerProduct"
  bottom: "data"
  top: "ip1"
  param {
    lr_mult: 1
  }
  param {
    lr_mult: 2
  }
  inner_product_param {
    num_output: 1000
    weight_filler {
      type: "xavier"
    }
    bias_filler {
      type: "constant"
      value: 0
    }
  }
}
layer {
  name: "RELU1"
  type: "ReLU"
  bottom: "ip1"
  top: "ip1"
}
layer {
  name: "ip2"
  type: "InnerProduct"
  bottom: "ip1"
  top: "ip2"
  param {
    lr_mult: 1
  }
  param {
    lr_mult: 2
  }
  inner_product_param {
    num_output: 1000
    weight_filler {
      type: "xavier"
    }
    bias_filler {
      type: "constant"
      value: 0
    }
  }
}
layer {
  name: "ip3"
  type: "InnerProduct"
  bottom: "ip2"
  top: "ip3"
  param {
    lr_mult: 1
  }
  param {
    lr_mult: 2
  }
  inner_product_param {
    num_output: 3
    weight_filler {
      type: "xavier"
    }
    bias_filler {
      type: "constant"
      value: 0
    }
  }
}
layer {
  name: "accuracy"
  type: "Accuracy"
  bottom: "ip3"
  bottom: "label"
  top: "accuracy"
  include {
    phase: TEST
  }
}
layer {
  name: "loss"
  type: "SoftmaxWithLoss"
  bottom: "ip3"
  bottom: "label"
  top: "loss"
}
I0404 12:49:04.690497 29243 layer_factory.hpp:77] Creating layer data
I0404 12:49:04.690522 29243 net.cpp:84] Creating Layer data
I0404 12:49:04.690526 29243 net.cpp:380] data -> data
I0404 12:49:04.690544 29243 net.cpp:380] data -> label
I0404 12:49:04.690572 29243 data_transformer.cpp:25] Loading mean file from: mean_img_Aug_3class.binaryproto
I0404 12:49:04.690698 29243 image_data_layer.cpp:38] Opening file ./PETA_Aug_val.txt
I0404 12:49:04.694814 29243 image_data_layer.cpp:63] A total of 16270 images.
I0404 12:49:04.695044 29243 image_data_layer.cpp:90] output data size: 50,3,64,64
I0404 12:49:04.699972 29243 net.cpp:122] Setting up data
I0404 12:49:04.699992 29243 net.cpp:129] Top shape: 50 3 64 64 (614400)
I0404 12:49:04.699996 29243 net.cpp:129] Top shape: 50 (50)
I0404 12:49:04.699998 29243 net.cpp:137] Memory required for data: 2457800
I0404 12:49:04.700018 29243 layer_factory.hpp:77] Creating layer label_data_1_split
I0404 12:49:04.700027 29243 net.cpp:84] Creating Layer label_data_1_split
I0404 12:49:04.700031 29243 net.cpp:406] label_data_1_split <- label
I0404 12:49:04.700037 29243 net.cpp:380] label_data_1_split -> label_data_1_split_0
I0404 12:49:04.700057 29243 net.cpp:380] label_data_1_split -> label_data_1_split_1
I0404 12:49:04.700142 29243 net.cpp:122] Setting up label_data_1_split
I0404 12:49:04.700147 29243 net.cpp:129] Top shape: 50 (50)
I0404 12:49:04.700150 29243 net.cpp:129] Top shape: 50 (50)
I0404 12:49:04.700151 29243 net.cpp:137] Memory required for data: 2458200
I0404 12:49:04.700152 29243 layer_factory.hpp:77] Creating layer ip1
I0404 12:49:04.700160 29243 net.cpp:84] Creating Layer ip1
I0404 12:49:04.700161 29243 net.cpp:406] ip1 <- data
I0404 12:49:04.700182 29243 net.cpp:380] ip1 -> ip1
I0404 12:49:04.755048 29243 net.cpp:122] Setting up ip1
I0404 12:49:04.755065 29243 net.cpp:129] Top shape: 50 1000 (50000)
I0404 12:49:04.755069 29243 net.cpp:137] Memory required for data: 2658200
I0404 12:49:04.755077 29243 layer_factory.hpp:77] Creating layer RELU1
I0404 12:49:04.755084 29243 net.cpp:84] Creating Layer RELU1
I0404 12:49:04.755086 29243 net.cpp:406] RELU1 <- ip1
I0404 12:49:04.755089 29243 net.cpp:367] RELU1 -> ip1 (in-place)
I0404 12:49:04.755509 29243 net.cpp:122] Setting up RELU1
I0404 12:49:04.755517 29243 net.cpp:129] Top shape: 50 1000 (50000)
I0404 12:49:04.755519 29243 net.cpp:137] Memory required for data: 2858200
I0404 12:49:04.755522 29243 layer_factory.hpp:77] Creating layer ip2
I0404 12:49:04.755527 29243 net.cpp:84] Creating Layer ip2
I0404 12:49:04.755529 29243 net.cpp:406] ip2 <- ip1
I0404 12:49:04.755533 29243 net.cpp:380] ip2 -> ip2
I0404 12:49:04.760109 29243 net.cpp:122] Setting up ip2
I0404 12:49:04.760121 29243 net.cpp:129] Top shape: 50 1000 (50000)
I0404 12:49:04.760123 29243 net.cpp:137] Memory required for data: 3058200
I0404 12:49:04.760129 29243 layer_factory.hpp:77] Creating layer ip3
I0404 12:49:04.760134 29243 net.cpp:84] Creating Layer ip3
I0404 12:49:04.760136 29243 net.cpp:406] ip3 <- ip2
I0404 12:49:04.760139 29243 net.cpp:380] ip3 -> ip3
I0404 12:49:04.760282 29243 net.cpp:122] Setting up ip3
I0404 12:49:04.760288 29243 net.cpp:129] Top shape: 50 3 (150)
I0404 12:49:04.760288 29243 net.cpp:137] Memory required for data: 3058800
I0404 12:49:04.760293 29243 layer_factory.hpp:77] Creating layer ip3_ip3_0_split
I0404 12:49:04.760298 29243 net.cpp:84] Creating Layer ip3_ip3_0_split
I0404 12:49:04.760299 29243 net.cpp:406] ip3_ip3_0_split <- ip3
I0404 12:49:04.760301 29243 net.cpp:380] ip3_ip3_0_split -> ip3_ip3_0_split_0
I0404 12:49:04.760305 29243 net.cpp:380] ip3_ip3_0_split -> ip3_ip3_0_split_1
I0404 12:49:04.760329 29243 net.cpp:122] Setting up ip3_ip3_0_split
I0404 12:49:04.760334 29243 net.cpp:129] Top shape: 50 3 (150)
I0404 12:49:04.760336 29243 net.cpp:129] Top shape: 50 3 (150)
I0404 12:49:04.760352 29243 net.cpp:137] Memory required for data: 3060000
I0404 12:49:04.760355 29243 layer_factory.hpp:77] Creating layer accuracy
I0404 12:49:04.760360 29243 net.cpp:84] Creating Layer accuracy
I0404 12:49:04.760362 29243 net.cpp:406] accuracy <- ip3_ip3_0_split_0
I0404 12:49:04.760365 29243 net.cpp:406] accuracy <- label_data_1_split_0
I0404 12:49:04.760370 29243 net.cpp:380] accuracy -> accuracy
…
