…
I0330 03:19:11.104441  6175 net.cpp:294] The NetState phase (0) differed from the phase (1) specified by a rule in layer data
I0330 03:19:11.104462  6175 net.cpp:294] The NetState phase (0) differed from the phase (1) specified by a rule in layer accuracy
I0330 03:19:11.104599  6175 net.cpp:51] Initializing net from parameters: 
name: "PETA_train"
state {
  phase: TRAIN
  level: 0
  stage: ""
}
layer {
  name: "data"
  type: "ImageData"
  top: "data"
  top: "label"
  include {
    phase: TRAIN
  }
  transform_param {
    scale: 0.00390625
    mean_file: "mean_img.binaryproto"
  }
  image_data_param {
    source: "PETA_train1.txt"
    batch_size: 50
  }
}
layer {
  name: "ip1"
  type: "InnerProduct"
  bottom: "data"
  top: "ip1"
  param {
    lr_mult: 1
  }
  param {
    lr_mult: 2
  }
  inner_product_param {
    num_output: 500
    weight_filler {
      type: "xavier"
    }
    bias_filler {
      type: "constant"
      value: 0
    }
  }
}
layer {
  name: "RELU1"
  type: "ReLU"
  bottom: "ip1"
  top: "ip1"
}
layer {
  name: "ip2"
  type: "InnerProduct"
  bottom: "ip1"
  top: "ip2"
  param {
    lr_mult: 1
  }
  param {
    lr_mult: 2
  }
  inner_product_param {
    num_output: 500
    weight_filler {
      type: "xavier"
    }
    bias_filler {
      type: "constant"
      value: 0
    }
  }
}
layer {
  name: "ip3"
  type: "InnerProduct"
  bottom: "ip2"
  top: "ip3"
  param {
    lr_mult: 1
  }
  param {
    lr_mult: 2
  }
  inner_product_param {
    num_output: 2
    weight_filler {
      type: "xavier"
    }
    bias_filler {
      type: "constant"
      value: 0
    }
  }
}
layer {
  name: "loss"
  type: "SoftmaxWithLoss"
  bottom: "ip3"
  bottom: "label"
  top: "loss"
}
I0330 03:19:11.104698  6175 layer_factory.hpp:77] Creating layer data
I0330 03:19:11.104812  6175 net.cpp:84] Creating Layer data
I0330 03:19:11.104835  6175 net.cpp:380] data -> data
I0330 03:19:11.104917  6175 net.cpp:380] data -> label
I0330 03:19:11.104950  6175 data_transformer.cpp:25] Loading mean file from: mean_img.binaryproto
I0330 03:19:11.106647  6175 image_data_layer.cpp:38] Opening file PETA_train1.txt
I0330 03:19:11.117674  6175 image_data_layer.cpp:63] A total of 13505 images.
I0330 03:19:11.212092  6175 image_data_layer.cpp:90] output data size: 50,3,64,64
I0330 03:19:11.228025  6175 net.cpp:122] Setting up data
I0330 03:19:11.228067  6175 net.cpp:129] Top shape: 50 3 64 64 (614400)
I0330 03:19:11.228081  6175 net.cpp:129] Top shape: 50 (50)
I0330 03:19:11.228090  6175 net.cpp:137] Memory required for data: 2457800
I0330 03:19:11.228103  6175 layer_factory.hpp:77] Creating layer ip1
I0330 03:19:11.228127  6175 net.cpp:84] Creating Layer ip1
I0330 03:19:11.228142  6175 net.cpp:406] ip1 <- data
I0330 03:19:11.228168  6175 net.cpp:380] ip1 -> ip1
I0330 03:19:11.294598  6175 net.cpp:122] Setting up ip1
I0330 03:19:11.294651  6175 net.cpp:129] Top shape: 50 500 (25000)
I0330 03:19:11.294661  6175 net.cpp:137] Memory required for data: 2557800
I0330 03:19:11.294710  6175 layer_factory.hpp:77] Creating layer RELU1
I0330 03:19:11.294736  6175 net.cpp:84] Creating Layer RELU1
I0330 03:19:11.294749  6175 net.cpp:406] RELU1 <- ip1
I0330 03:19:11.294762  6175 net.cpp:367] RELU1 -> ip1 (in-place)
I0330 03:19:11.294777  6175 net.cpp:122] Setting up RELU1
I0330 03:19:11.294785  6175 net.cpp:129] Top shape: 50 500 (25000)
I0330 03:19:11.294788  6175 net.cpp:137] Memory required for data: 2657800
I0330 03:19:11.294793  6175 layer_factory.hpp:77] Creating layer ip2
I0330 03:19:11.294842  6175 net.cpp:84] Creating Layer ip2
I0330 03:19:11.294853  6175 net.cpp:406] ip2 <- ip1
I0330 03:19:11.294867  6175 net.cpp:380] ip2 -> ip2
I0330 03:19:11.297854  6175 net.cpp:122] Setting up ip2
I0330 03:19:11.297873  6175 net.cpp:129] Top shape: 50 500 (25000)
I0330 03:19:11.297879  6175 net.cpp:137] Memory required for data: 2757800
I0330 03:19:11.297893  6175 layer_factory.hpp:77] Creating layer ip3
I0330 03:19:11.297905  6175 net.cpp:84] Creating Layer ip3
I0330 03:19:11.297910  6175 net.cpp:406] ip3 <- ip2
I0330 03:19:11.297919  6175 net.cpp:380] ip3 -> ip3
I0330 03:19:11.298058  6175 net.cpp:122] Setting up ip3
I0330 03:19:11.298068  6175 net.cpp:129] Top shape: 50 2 (100)
I0330 03:19:11.298071  6175 net.cpp:137] Memory required for data: 2758200
I0330 03:19:11.298081  6175 layer_factory.hpp:77] Creating layer loss
I0330 03:19:11.298089  6175 net.cpp:84] Creating Layer loss
I0330 03:19:11.298094  6175 net.cpp:406] loss <- ip3
I0330 03:19:11.298100  6175 net.cpp:406] loss <- label
I0330 03:19:11.298110  6175 net.cpp:380] loss -> loss
I0330 03:19:11.298123  6175 layer_factory.hpp:77] Creating layer loss
…
I0330 03:19:11.303040  6175 solver.cpp:173] Creating test net (#0) specified by net file: ./simple_ANN.prototxt
I0330 03:19:11.303088  6175 net.cpp:294] The NetState phase (1) differed from the phase (0) specified by a rule in layer data
I0330 03:19:11.303210  6175 net.cpp:51] Initializing net from parameters: 
name: "PETA_train"
state {
  phase: TEST
}
layer {
  name: "data"
  type: "ImageData"
  top: "data"
  top: "label"
  include {
    phase: TEST
  }
  transform_param {
    scale: 0.00390625
    mean_file: "mean_img.binaryproto"
  }
  image_data_param {
    source: "PETA_val1.txt"
    batch_size: 50
  }
}
layer {
  name: "ip1"
  type: "InnerProduct"
  bottom: "data"
  top: "ip1"
  param {
    lr_mult: 1
  }
  param {
    lr_mult: 2
  }
  inner_product_param {
    num_output: 500
    weight_filler {
      type: "xavier"
    }
    bias_filler {
      type: "constant"
      value: 0
    }
  }
}
layer {
  name: "RELU1"
  type: "ReLU"
  bottom: "ip1"
  top: "ip1"
}
layer {
  name: "ip2"
  type: "InnerProduct"
  bottom: "ip1"
  top: "ip2"
  param {
    lr_mult: 1
  }
  param {
    lr_mult: 2
  }
  inner_product_param {
    num_output: 500
    weight_filler {
      type: "xavier"
    }
    bias_filler {
      type: "constant"
      value: 0
    }
  }
}
layer {
  name: "ip3"
  type: "InnerProduct"
  bottom: "ip2"
  top: "ip3"
  param {
    lr_mult: 1
  }
  param {
    lr_mult: 2
  }
  inner_product_param {
    num_output: 2
    weight_filler {
      type: "xavier"
    }
    bias_filler {
      type: "constant"
      value: 0
    }
  }
}
layer {
  name: "accuracy"
  type: "Accuracy"
  bottom: "ip3"
  bottom: "label"
  top: "accuracy"
  include {
    phase: TEST
  }
}
layer {
  name: "loss"
  type: "SoftmaxWithLoss"
  bottom: "ip3"
  bottom: "label"
  top: "loss"
}
I0330 03:19:11.303323  6175 layer_factory.hpp:77] Creating layer data
I0330 03:19:11.303347  6175 net.cpp:84] Creating Layer data
I0330 03:19:11.303356  6175 net.cpp:380] data -> data
I0330 03:19:11.303370  6175 net.cpp:380] data -> label
I0330 03:19:11.303386  6175 data_transformer.cpp:25] Loading mean file from: mean_img.binaryproto
I0330 03:19:11.303692  6175 image_data_layer.cpp:38] Opening file PETA_val1.txt
I0330 03:19:11.349777  6175 image_data_layer.cpp:63] A total of 5788 images.
I0330 03:19:11.504900  6175 image_data_layer.cpp:90] output data size: 50,3,64,64
I0330 03:19:11.519402  6175 net.cpp:122] Setting up data
I0330 03:19:11.519443  6175 net.cpp:129] Top shape: 50 3 64 64 (614400)
I0330 03:19:11.519457  6175 net.cpp:129] Top shape: 50 (50)
I0330 03:19:11.519465  6175 net.cpp:137] Memory required for data: 2457800
I0330 03:19:11.519476  6175 layer_factory.hpp:77] Creating layer label_data_1_split
I0330 03:19:11.519491  6175 net.cpp:84] Creating Layer label_data_1_split
I0330 03:19:11.519497  6175 net.cpp:406] label_data_1_split <- label
I0330 03:19:11.519507  6175 net.cpp:380] label_data_1_split -> label_data_1_split_0
I0330 03:19:11.519521  6175 net.cpp:380] label_data_1_split -> label_data_1_split_1
I0330 03:19:11.519596  6175 net.cpp:122] Setting up label_data_1_split
I0330 03:19:11.519605  6175 net.cpp:129] Top shape: 50 (50)
I0330 03:19:11.519611  6175 net.cpp:129] Top shape: 50 (50)
I0330 03:19:11.519615  6175 net.cpp:137] Memory required for data: 2458200
I0330 03:19:11.519619  6175 layer_factory.hpp:77] Creating layer ip1
I0330 03:19:11.519631  6175 net.cpp:84] Creating Layer ip1
I0330 03:19:11.519636  6175 net.cpp:406] ip1 <- data
I0330 03:19:11.519644  6175 net.cpp:380] ip1 -> ip1
I0330 03:19:11.585687  6175 net.cpp:122] Setting up ip1
I0330 03:19:11.585736  6175 net.cpp:129] Top shape: 50 500 (25000)
I0330 03:19:11.585747  6175 net.cpp:137] Memory required for data: 2558200
I0330 03:19:11.585777  6175 layer_factory.hpp:77] Creating layer RELU1
I0330 03:19:11.585796  6175 net.cpp:84] Creating Layer RELU1
I0330 03:19:11.585808  6175 net.cpp:406] RELU1 <- ip1
I0330 03:19:11.585821  6175 net.cpp:367] RELU1 -> ip1 (in-place)
I0330 03:19:11.585840  6175 net.cpp:122] Setting up RELU1
I0330 03:19:11.585850  6175 net.cpp:129] Top shape: 50 500 (25000)
I0330 03:19:11.585853  6175 net.cpp:137] Memory required for data: 2658200
I0330 03:19:11.585858  6175 layer_factory.hpp:77] Creating layer ip2
I0330 03:19:11.585871  6175 net.cpp:84] Creating Layer ip2
I0330 03:19:11.585876  6175 net.cpp:406] ip2 <- ip1
I0330 03:19:11.585885  6175 net.cpp:380] ip2 -> ip2
I0330 03:19:11.589148  6175 net.cpp:122] Setting up ip2
I0330 03:19:11.589170  6175 net.cpp:129] Top shape: 50 500 (25000)
I0330 03:19:11.589175  6175 net.cpp:137] Memory required for data: 2758200
I0330 03:19:11.589190  6175 layer_factory.hpp:77] Creating layer ip3
I0330 03:19:11.589201  6175 net.cpp:84] Creating Layer ip3
I0330 03:19:11.589207  6175 net.cpp:406] ip3 <- ip2
I0330 03:19:11.589215  6175 net.cpp:380] ip3 -> ip3
I0330 03:19:11.589361  6175 net.cpp:122] Setting up ip3
I0330 03:19:11.589370  6175 net.cpp:129] Top shape: 50 2 (100)
I0330 03:19:11.589373  6175 net.cpp:137] Memory required for data: 2758600
I0330 03:19:11.589385  6175 layer_factory.hpp:77] Creating layer ip3_ip3_0_split
I0330 03:19:11.589392  6175 net.cpp:84] Creating Layer ip3_ip3_0_split
I0330 03:19:11.589397  6175 net.cpp:406] ip3_ip3_0_split <- ip3
I0330 03:19:11.589404  6175 net.cpp:380] ip3_ip3_0_split -> ip3_ip3_0_split_0
I0330 03:19:11.589414  6175 net.cpp:380] ip3_ip3_0_split -> ip3_ip3_0_split_1
I0330 03:19:11.589462  6175 net.cpp:122] Setting up ip3_ip3_0_split
I0330 03:19:11.589469  6175 net.cpp:129] Top shape: 50 2 (100)
I0330 03:19:11.589475  6175 net.cpp:129] Top shape: 50 2 (100)
I0330 03:19:11.589479  6175 net.cpp:137] Memory required for data: 2759400
I0330 03:19:11.589484  6175 layer_factory.hpp:77] Creating layer accuracy
I0330 03:19:11.589493  6175 net.cpp:84] Creating Layer accuracy
I0330 03:19:11.589498  6175 net.cpp:406] accuracy <- ip3_ip3_0_split_0
I0330 03:19:11.589504  6175 net.cpp:406] accuracy <- label_data_1_split_0
I0330 03:19:11.589511  6175 net.cpp:380] accuracy -> accuracy
…
