…
I0331 04:23:59.225373 25875 net.cpp:294] The NetState phase (0) differed from the phase (1) specified by a rule in layer accuracy
I0331 04:23:59.225489 25875 net.cpp:51] Initializing net from parameters: 
name: "ANN_3_Class"
state {
  phase: TRAIN
  level: 0
  stage: ""
}
layer {
  name: "data"
  type: "ImageData"
  top: "data"
  top: "label"
  include {
    phase: TRAIN
  }
  transform_param {
    scale: 0.00390625
    mean_file: "mean_img.binaryproto"
  }
  image_data_param {
    source: "../Image_files/PETA_train1_3class.txt"
    batch_size: 50
  }
}
layer {
  name: "ip1"
  type: "InnerProduct"
  bottom: "data"
  top: "ip1"
  param {
    lr_mult: 1
  }
  param {
    lr_mult: 2
  }
  inner_product_param {
    num_output: 500
    weight_filler {
      type: "xavier"
    }
    bias_filler {
      type: "constant"
      value: 0
    }
  }
}
layer {
  name: "RELU1"
  type: "ReLU"
  bottom: "ip1"
  top: "ip1"
}
layer {
  name: "ip2"
  type: "InnerProduct"
  bottom: "ip1"
  top: "ip2"
  param {
    lr_mult: 1
  }
  param {
    lr_mult: 2
  }
  inner_product_param {
    num_output: 500
    weight_filler {
      type: "xavier"
    }
    bias_filler {
      type: "constant"
      value: 0
    }
  }
}
layer {
  name: "ip3"
  type: "InnerProduct"
  bottom: "ip2"
  top: "ip3"
  param {
    lr_mult: 1
  }
  param {
    lr_mult: 2
  }
  inner_product_param {
    num_output: 3
    weight_filler {
      type: "xavier"
    }
    bias_filler {
      type: "constant"
      value: 0
    }
  }
}
layer {
  name: "loss"
  type: "SoftmaxWithLoss"
  bottom: "ip3"
  bottom: "label"
  top: "loss"
}
I0331 04:23:59.225579 25875 layer_factory.hpp:77] Creating layer data
I0331 04:23:59.225630 25875 net.cpp:84] Creating Layer data
I0331 04:23:59.225644 25875 net.cpp:380] data -> data
I0331 04:23:59.225684 25875 net.cpp:380] data -> label
I0331 04:23:59.225720 25875 data_transformer.cpp:25] Loading mean file from: mean_img.binaryproto
I0331 04:23:59.227358 25875 image_data_layer.cpp:38] Opening file ../Image_files/PETA_train1_3class.txt
I0331 04:23:59.238869 25875 image_data_layer.cpp:63] A total of 13505 images.
I0331 04:23:59.257809 25875 image_data_layer.cpp:90] output data size: 50,3,64,64
I0331 04:23:59.272804 25875 net.cpp:122] Setting up data
I0331 04:23:59.272843 25875 net.cpp:129] Top shape: 50 3 64 64 (614400)
I0331 04:23:59.272857 25875 net.cpp:129] Top shape: 50 (50)
I0331 04:23:59.272866 25875 net.cpp:137] Memory required for data: 2457800
I0331 04:23:59.272879 25875 layer_factory.hpp:77] Creating layer ip1
I0331 04:23:59.272902 25875 net.cpp:84] Creating Layer ip1
I0331 04:23:59.272909 25875 net.cpp:406] ip1 <- data
I0331 04:23:59.272925 25875 net.cpp:380] ip1 -> ip1
I0331 04:23:59.342286 25875 net.cpp:122] Setting up ip1
I0331 04:23:59.342329 25875 net.cpp:129] Top shape: 50 500 (25000)
I0331 04:23:59.342337 25875 net.cpp:137] Memory required for data: 2557800
I0331 04:23:59.342372 25875 layer_factory.hpp:77] Creating layer RELU1
I0331 04:23:59.342389 25875 net.cpp:84] Creating Layer RELU1
I0331 04:23:59.342396 25875 net.cpp:406] RELU1 <- ip1
I0331 04:23:59.342404 25875 net.cpp:367] RELU1 -> ip1 (in-place)
I0331 04:23:59.342417 25875 net.cpp:122] Setting up RELU1
I0331 04:23:59.342424 25875 net.cpp:129] Top shape: 50 500 (25000)
I0331 04:23:59.342429 25875 net.cpp:137] Memory required for data: 2657800
I0331 04:23:59.342460 25875 layer_factory.hpp:77] Creating layer ip2
I0331 04:23:59.342471 25875 net.cpp:84] Creating Layer ip2
I0331 04:23:59.342476 25875 net.cpp:406] ip2 <- ip1
I0331 04:23:59.342484 25875 net.cpp:380] ip2 -> ip2
I0331 04:23:59.345482 25875 net.cpp:122] Setting up ip2
I0331 04:23:59.345501 25875 net.cpp:129] Top shape: 50 500 (25000)
I0331 04:23:59.345506 25875 net.cpp:137] Memory required for data: 2757800
I0331 04:23:59.345520 25875 layer_factory.hpp:77] Creating layer ip3
I0331 04:23:59.345531 25875 net.cpp:84] Creating Layer ip3
I0331 04:23:59.345536 25875 net.cpp:406] ip3 <- ip2
I0331 04:23:59.345546 25875 net.cpp:380] ip3 -> ip3
I0331 04:23:59.346408 25875 net.cpp:122] Setting up ip3
I0331 04:23:59.346436 25875 net.cpp:129] Top shape: 50 3 (150)
I0331 04:23:59.346446 25875 net.cpp:137] Memory required for data: 2758400
I0331 04:23:59.346467 25875 layer_factory.hpp:77] Creating layer loss
I0331 04:23:59.346478 25875 net.cpp:84] Creating Layer loss
I0331 04:23:59.346484 25875 net.cpp:406] loss <- ip3
I0331 04:23:59.346493 25875 net.cpp:406] loss <- label
I0331 04:23:59.346508 25875 net.cpp:380] loss -> loss
I0331 04:23:59.346529 25875 layer_factory.hpp:77] Creating layer loss
…
I0331 04:23:59.361065 25875 solver.cpp:173] Creating test net (#0) specified by net file: ./ANN_3class_500.prototxt
I0331 04:23:59.361138 25875 net.cpp:294] The NetState phase (1) differed from the phase (0) specified by a rule in layer data
I0331 04:23:59.361292 25875 net.cpp:51] Initializing net from parameters: 
name: "ANN_3_Class"
state {
  phase: TEST
}
layer {
  name: "data"
  type: "ImageData"
  top: "data"
  top: "label"
  include {
    phase: TEST
  }
  transform_param {
    scale: 0.00390625
    mean_file: "mean_img.binaryproto"
  }
  image_data_param {
    source: "../Image_files/PETA_val1_3class.txt"
    batch_size: 50
  }
}
layer {
  name: "ip1"
  type: "InnerProduct"
  bottom: "data"
  top: "ip1"
  param {
    lr_mult: 1
  }
  param {
    lr_mult: 2
  }
  inner_product_param {
    num_output: 500
    weight_filler {
      type: "xavier"
    }
    bias_filler {
      type: "constant"
      value: 0
    }
  }
}
layer {
  name: "RELU1"
  type: "ReLU"
  bottom: "ip1"
  top: "ip1"
}
layer {
  name: "ip2"
  type: "InnerProduct"
  bottom: "ip1"
  top: "ip2"
  param {
    lr_mult: 1
  }
  param {
    lr_mult: 2
  }
  inner_product_param {
    num_output: 500
    weight_filler {
      type: "xavier"
    }
    bias_filler {
      type: "constant"
      value: 0
    }
  }
}
layer {
  name: "ip3"
  type: "InnerProduct"
  bottom: "ip2"
  top: "ip3"
  param {
    lr_mult: 1
  }
  param {
    lr_mult: 2
  }
  inner_product_param {
    num_output: 3
    weight_filler {
      type: "xavier"
    }
    bias_filler {
      type: "constant"
      value: 0
    }
  }
}
layer {
  name: "accuracy"
  type: "Accuracy"
  bottom: "ip3"
  bottom: "label"
  top: "accuracy"
  include {
    phase: TEST
  }
}
layer {
  name: "loss"
  type: "SoftmaxWithLoss"
  bottom: "ip3"
  bottom: "label"
  top: "loss"
}
I0331 04:23:59.361414 25875 layer_factory.hpp:77] Creating layer data
I0331 04:23:59.361446 25875 net.cpp:84] Creating Layer data
I0331 04:23:59.361459 25875 net.cpp:380] data -> data
I0331 04:23:59.361482 25875 net.cpp:380] data -> label
I0331 04:23:59.361533 25875 data_transformer.cpp:25] Loading mean file from: mean_img.binaryproto
I0331 04:23:59.361917 25875 image_data_layer.cpp:38] Opening file ../Image_files/PETA_val1_3class.txt
I0331 04:23:59.376402 25875 image_data_layer.cpp:63] A total of 5788 images.
I0331 04:23:59.379007 25875 image_data_layer.cpp:90] output data size: 50,3,64,64
I0331 04:23:59.395525 25875 net.cpp:122] Setting up data
I0331 04:23:59.395570 25875 net.cpp:129] Top shape: 50 3 64 64 (614400)
I0331 04:23:59.395583 25875 net.cpp:129] Top shape: 50 (50)
I0331 04:23:59.395591 25875 net.cpp:137] Memory required for data: 2457800
I0331 04:23:59.395601 25875 layer_factory.hpp:77] Creating layer label_data_1_split
I0331 04:23:59.395622 25875 net.cpp:84] Creating Layer label_data_1_split
I0331 04:23:59.395630 25875 net.cpp:406] label_data_1_split <- label
I0331 04:23:59.395647 25875 net.cpp:380] label_data_1_split -> label_data_1_split_0
I0331 04:23:59.395665 25875 net.cpp:380] label_data_1_split -> label_data_1_split_1
I0331 04:23:59.395735 25875 net.cpp:122] Setting up label_data_1_split
I0331 04:23:59.395745 25875 net.cpp:129] Top shape: 50 (50)
I0331 04:23:59.395751 25875 net.cpp:129] Top shape: 50 (50)
I0331 04:23:59.395756 25875 net.cpp:137] Memory required for data: 2458200
I0331 04:23:59.395759 25875 layer_factory.hpp:77] Creating layer ip1
I0331 04:23:59.395772 25875 net.cpp:84] Creating Layer ip1
I0331 04:23:59.395777 25875 net.cpp:406] ip1 <- data
I0331 04:23:59.395786 25875 net.cpp:380] ip1 -> ip1
I0331 04:23:59.467742 25875 net.cpp:122] Setting up ip1
I0331 04:23:59.467784 25875 net.cpp:129] Top shape: 50 500 (25000)
I0331 04:23:59.467793 25875 net.cpp:137] Memory required for data: 2558200
I0331 04:23:59.467819 25875 layer_factory.hpp:77] Creating layer RELU1
I0331 04:23:59.467836 25875 net.cpp:84] Creating Layer RELU1
I0331 04:23:59.467845 25875 net.cpp:406] RELU1 <- ip1
I0331 04:23:59.467859 25875 net.cpp:367] RELU1 -> ip1 (in-place)
I0331 04:23:59.467876 25875 net.cpp:122] Setting up RELU1
I0331 04:23:59.467883 25875 net.cpp:129] Top shape: 50 500 (25000)
I0331 04:23:59.467887 25875 net.cpp:137] Memory required for data: 2658200
I0331 04:23:59.467892 25875 layer_factory.hpp:77] Creating layer ip2
I0331 04:23:59.467905 25875 net.cpp:84] Creating Layer ip2
I0331 04:23:59.467910 25875 net.cpp:406] ip2 <- ip1
I0331 04:23:59.467917 25875 net.cpp:380] ip2 -> ip2
I0331 04:23:59.470927 25875 net.cpp:122] Setting up ip2
I0331 04:23:59.470945 25875 net.cpp:129] Top shape: 50 500 (25000)
I0331 04:23:59.470950 25875 net.cpp:137] Memory required for data: 2758200
I0331 04:23:59.470963 25875 layer_factory.hpp:77] Creating layer ip3
I0331 04:23:59.470973 25875 net.cpp:84] Creating Layer ip3
I0331 04:23:59.470978 25875 net.cpp:406] ip3 <- ip2
I0331 04:23:59.470986 25875 net.cpp:380] ip3 -> ip3
I0331 04:23:59.471138 25875 net.cpp:122] Setting up ip3
I0331 04:23:59.471146 25875 net.cpp:129] Top shape: 50 3 (150)
I0331 04:23:59.471150 25875 net.cpp:137] Memory required for data: 2758800
I0331 04:23:59.471161 25875 layer_factory.hpp:77] Creating layer ip3_ip3_0_split
I0331 04:23:59.471168 25875 net.cpp:84] Creating Layer ip3_ip3_0_split
I0331 04:23:59.471174 25875 net.cpp:406] ip3_ip3_0_split <- ip3
I0331 04:23:59.471180 25875 net.cpp:380] ip3_ip3_0_split -> ip3_ip3_0_split_0
I0331 04:23:59.471190 25875 net.cpp:380] ip3_ip3_0_split -> ip3_ip3_0_split_1
I0331 04:23:59.471236 25875 net.cpp:122] Setting up ip3_ip3_0_split
I0331 04:23:59.471245 25875 net.cpp:129] Top shape: 50 3 (150)
I0331 04:23:59.471251 25875 net.cpp:129] Top shape: 50 3 (150)
I0331 04:23:59.471256 25875 net.cpp:137] Memory required for data: 2760000
I0331 04:23:59.471259 25875 layer_factory.hpp:77] Creating layer accuracy
I0331 04:23:59.471267 25875 net.cpp:84] Creating Layer accuracy
I0331 04:23:59.471271 25875 net.cpp:406] accuracy <- ip3_ip3_0_split_0
I0331 04:23:59.471278 25875 net.cpp:406] accuracy <- label_data_1_split_0
I0331 04:23:59.471285 25875 net.cpp:380] accuracy -> accuracy
…
